best_nam_model.pth (torch, 15370 bytes, 17 tensors)

nam_layers.0.0.weight f4 [128, 1]
-0.2176589 -0.41312027 0.03984071 0.42228937 0.04122425 0.60245955 -0.5486587 0.42748237
-0.030787952 0.516618 -0.5667385 -0.1691637 0.49496198 0.34674507 0.14437288 0.55929595
0.31526864 1.0266707 -0.32695174 0.59782207 -0.7591617 0.61075217 -0.46969602 -0.22606084
-0.7666097 0.30136406 1.064993 0.41355047 -0.2038702 0.8717503 0.821007 0.29015097
0.28068662 -0.16187644 0.24363606 0.4455368 -0.3240744 -0.35357797 -0.30087504 0.29404774
-0.68646383 -0.12759924 0.0710608 -0.6536993 0.41716537 -0.8528371 -0.6145752 -0.81475806
0.43858165 0.24576847 -0.64003456 -0.80379575 -0.6864216 0.5693244 0.3406057 0.39797515
-0.41869542 -0.26647308 -0.14484382 -0.7460448 0.5702672 0.7771334 -0.6340991 -0.5345988
-0.5062799 -0.37088385 0.5541702 0.09043314 -0.63604486 0.777449 0.19964486 0.24328843
-0.71085167 -0.5183941 0.06142354 -0.05801916 0.33218148 0.62711835 -0.35147235 0.21659724
-0.2115731 0.09600833 -1.0458636 -0.18872851 -0.25451493 0.23601006 -0.81863725 0.3856923
0.07464162 0.12865913 0.43078452 -0.46899712 -0.38110554 0.6008997 0.28028607 0.528349
-0.58299977 0.5883981 -0.49829233 -0.34933913 -0.7368696 -0.27553228 0.47408697 0.7915947
0.5327445 -0.2511247 0.57777023 -0.31925356 -0.8315606 -0.5201055 -0.06767006 0.35682154
0.20103149 -0.20651792 0.83173287 0.5903616 0.07335937 -0.8122538 0.37087774 -0.09234047
-0.30564293 -0.6086813 -0.3220395 0.762238 -0.3568122 -0.8868451 0.40440902 -0.68966883
00000000: fae1 5ebe 8084 d3be 0330 233d 5036 d83e
00000010: c2da 283d ca3a 1a3f e674 0cbf f8de da3e
00000020: 0437 fcbc 1441 043f c615 11bf 4039 2dbe
00000030: a86b fd3e 9288 b13e 7cd6 133e 052e 0f3f
00000040: e46a a13e f269 833f 3866 a7be de0a 193f
00000050: 6c58 42bf 415a 1c3f ff7b f0be 7e7c 67be
00000060: 8940 44bf 644c 9a3e b151 883f e3bc d33e
00000070: 5ac3 50be 072b 5f3f 842d 523f ab8e 943e
00000080: 28b6 8f3e f0c2 25be bb7b 793e 661d e43e
00000090: 14ed a5be 2c08 b5be 4b0c 9abe 6d8d 963e
000000a0: 18bc 2fbf 60a9 02be 5388 913d d658 27bf
000000b0: b396 d53e 8853 5abf cd54 1dbf fc93 50bf
000000c0: c68d e03e bbaa 7b3e 4ed9 23bf 8fc5 4dbf
000000d0: 53b9 2fbf 3ebf 113f df63 ae3e 66c3 cb3e
000000e0: 3f5f d6be 296f 88be f051 14be cbfc 3ebf
000000f0: 08fd 113f 37f2 463f 5254 22bf 78db 08bf
00000100: 8f9b 01bf 7de4 bdbe 19de 0d3f 0335 b93d
00000110: d6d3 22bf e606 473f b46f 4c3e 9a20 793e
00000120: 60fa 35bf 7ab5 04bf 4097 7b3d 80a5 6dbd
00000130: b113 aa3e d48a 203f 2ff4 b3be abcb 5d3e
00000140: 9ea6 58be 04a0 c43d dcde 85bf 0c42 41be
00000150: c84f 82be 9fac 713e 3692 51bf 7679 c53e
00000160: b5dd 983d 38bf 033e ca8f dc3e 6420 f0be
00000170: 4420 c3be 90d4 193f a881 8f3e e141 073f
00000180: 793f 15bf 42a1 163f 2c20 ffbe 94dc b2be
00000190: 7ca3 3cbf 9112 8dbe 87bb f23e f3a5 4a3f
000001a0: f261 083f 6b93 80be c0e8 133f 3475 a3be
000001b0: 28e1 54bf a225 05bf 9a96 8abd 50b1 b63e
000001c0: 33db 4d3e 6f79 53be 72ec 543f f021 173f
000001d0: 703d 963d ddef 4fbf b0e3 bd3e 001d bdbd
000001e0: 3b7d 9cbe 8ad2 1bbf 5de2 a4be 0822 433f
000001f0: 17b0 b6be 4808 63bf b30e cf3e 238e 30bf

nam_layers.0.0.bias f4 [128]
0.5519995 0.09985002 -0.1641373 0.5406 0.110590905 -1.3595097 -0.8785672 -0.9631927
0.5105992 -0.9952046 -0.63221204 -0.8518057 0.34939563 -0.24534562 0.6858988 0.434591
-0.71218544 -0.37272048 0.8328862 0.5954297 -0.92645144 0.38238057 0.041280396 0.59063756
-0.2566441 0.7227026 -0.40186813 0.4706991 0.18684033 -0.29297227 0.77689946 0.94856834
-0.9647366 -0.35376418 -0.55019665 -0.9986023 -0.06612416 -0.33159435 0.4370365 -0.6613827
-0.6235354 -0.47709 0.37056077 0.019094875 -0.9298713 -0.935547 0.533112 -0.5521431
0.4610414 -0.54866624 -0.34734285 0.3568446 0.8548639 0.3976863 0.8076738 0.46283028
1.0403349 0.63559824 -0.3659699 0.42809853 0.35836124 -0.42816466 -0.6026298 -0.92411315
-0.24107747 0.96362936 -1.2394733 0.09727072 1.031236 0.48446712 0.20350999 -1.0128542
-0.338744 -0.35090604 -0.8047228 -0.13801956 -0.74949056 0.7200082 0.29897168 -0.489394
0.54683656 0.087219246 -0.4978498 0.16626735 -0.27623296 0.9190992 -0.69789374 0.366248
-0.2988987 -0.72716963 -0.9667175 -0.27355248 0.55959487 -1.3412569 -0.6337073 0.8294125
-0.3156274 0.58247757 -0.5714327 0.9104475 -0.9211339 0.7169985 -1.0624211 -0.48849064
0.4704489 -0.027178522 -1.2907892 -0.39979804 0.32179344 -0.826432 0.6064507 -0.80096453
-0.92971504 0.14073813 -0.42599198 -0.18819648 -0.76386654 0.3585147 -0.8356813 -0.92922926
0.7956505 -0.43341637 0.8336244 0.45384794 0.7391926 -0.7866566 -0.91495913 0.18356298
00000000: d74f 0d3f 2b7e cc3d 9c13 28be c364 0a3f
00000010: 7c7d e23d 6a04 aebf c8e9 60bf cc93 76bf
00000020: a1b6 023f bbc5 7ebf a6d8 21bf f00f 5abf
00000030: fce3 b23e e23b 7bbe 1097 2f3f b682 de3e
00000040: c951 36bf 38d5 bebe 0838 553f 156e 183f
00000050: ec2b 6dbf 63c7 c33e a215 293d 0634 173f
00000060: db66 83be 0a03 393f a9c1 cdbe 79ff f03e
00000070: 1253 3f3e 7600 96be e2e2 463f 60d5 723f
00000080: faf8 76bf 9420 b5be b0d9 0cbf 66a4 7fbf
00000090: 1b6c 87bd bcc6 a9be 40c3 df3e 6050 29bf
000000a0: 04a0 1fbf 2445 f4be 24ba bd3e db6c 9c3c
000000b0: 0c0c 6ebf 0280 6fbf 077a 083f 4059 0dbf
000000c0: 9e0d ec3e 6475 0cbf ecd6 b1be 56b4 b63e
000000d0: 5cd8 5a3f 8a9d cb3e b6c3 4e3f 17f8 ec3e
000000e0: b229 853f 91b6 223f 6860 bbbe bb2f db3e
000000f0: 207b b73e 6638 dbbe f245 1abf ae92 6cbf
00000100: 03dd 76be 6ab0 763f 10a7 9ebf df35 c73d
00000110: 8bff 833f 130c f83e ec64 503e 35a5 81bf
00000120: db6f adbe f5a9 b3be 5002 4ebf 0055 0dbe
00000130: 9dde 3fbf 7552 383f d112 993e da91 fabe
00000140: 7bfd 0b3f 01a0 b23d 2be6 febe fd41 2a3e
00000150: 686e 8dbe 164a 6b3f 2aa9 32bf dc84 bb3e
00000160: 4009 99be ca27 3abf cc7a 77bf 120f 8cbe
00000170: 9c41 0f3f 4eae abbf a43a 22bf 6154 543f
00000180: ea99 a1be 401d 153f 6a49 12bf 1613 693f
00000190: 6ecf 6bbf 378d 373f 6afd 87bf 721b fabe
000001a0: aede f03e 7ea5 debc 9538 a5bf 54b2 ccbe
000001b0: 1cc2 a43e 0c91 53bf 5a40 1b3f 030c 4dbf
000001c0: ce01 6ebf a81d 103e 9f1b dabe 94b6 40be
000001d0: c28c 43bf 3d8f b73e 36ef 55bf f8e1 6dbf
000001e0: c0af 4b3f c0e8 ddbe 6968 553f c25e e83e
000001f0: ba3b 3d3f 5462 49bf c33a 6abf eff7 3b3e

nam_layers.0.2.weight f4 [1, 128]
0.026792131 -0.014866528 0.036778003 0.0454223 -0.0047749686 0.08785743 0.025390945 0.045494474
0.047264088 0.008297391 -0.04315046 -0.02406469 -0.028146015 -0.06362538 0.011548329 0.053200867
0.2265373 -0.15513517 0.112978116 0.008597469 0.07004539 -0.1128801 -0.017226297 0.101219654
-0.0052760122 0.00338719 -0.17060885 -0.08746191 -0.025492236 -0.21025166 -0.106164165 -0.044894475
-0.02101212 -0.04442524 0.54532874 0.5737549 -0.01600243 -0.04501887 0.016078379 0.1279981
0.046451844 0.008787639 0.017076664 0.012829738 0.19762717 0.034762554 0.06649478 -0.07435796
-0.07453395 0.1241451 -0.067939654 -0.09163222 -0.023449145 0.044126198 -0.055099398 -0.038568262
0.1202917 0.022589179 0.07662087 -0.068888664 -0.116727784 -0.21141304 0.012538381 0.042876087
0.22298837 0.12144352 0.67583704 -0.020908857 0.014933109 -0.10133684 -0.011583774 -0.01807519
0.29907945 0.11496337 -0.009835511 0.012524612 0.21284384 0.041226003 -0.052105855 0.30046925
0.064576276 -0.028973462 0.29516488 -0.026428442 0.029276296 0.037847973 -0.03385812 -0.060816266
0.072114944 0.005045153 0.3465426 0.16140439 0.0356365 0.6688235 0.61109257 -0.019273255
0.12605332 0.005063879 0.046751417 0.055845726 -0.0774061 0.034622237 0.6359844 -0.19204636
0.012460021 -0.010456023 0.6389635 -0.030032136 0.054450195 0.005271256 0.0645731 0.31597686
0.044344403 -0.03228805 -0.07256454 -0.20069084 0.059300266 -0.056645192 0.040378436 0.004885681
0.046544008 -0.074586816 0.09324585 -0.08701608 0.028117854 -0.028037265 0.30398637 -0.09446038
00000000: 2c7b db3c bd92 73bc 88a4 163d bc0c 3a3d
00000010: 5777 9cbb 99ee b33d ac00 d03c 6a58 3a3d
00000020: fd97 413d c8f1 073c 89be 30bd 5023 c5bc
00000030: 7992 e6bc 064e 82bd 3435 3d3c 27e9 593d
00000040: 65f9 673e c1db 1ebe 1261 e73d 66dc 0c3c
00000050: f573 8f3d af2d e7bd 2a1e 8dbc 404c cf3d
00000060: 66e2 acbb 9efb 5d3b 16b4 2ebe 3b1f b3bd
00000070: 18d5 d0bc 364c 57be 996c d9bd 45e3 37bd
00000080: 9c21 acbc 3ef7 35bd aa9a 0b3f 9ae1 123f
00000090: 8717 83bc b565 38bd ceb6 833c ef11 033e
000000a0: 4a44 3e3d 08fa 0f3c 5ce4 8b3c d233 523c
000000b0: c75e 4a3e 2e63 0e3d 6a2e 883d fc48 98bd
000000c0: 41a5 98bd c93f fe3d f223 8bbd aca9 bbbd
000000d0: 6c18 c0bc acbd 343d e8af 61bd c1f9 1dbd
000000e0: 7f5b f63d f10c b93c 67eb 9c3d 8015 8dbd
000000f0: fa0e efbd a97c 58be c86d 4d3c d69e 2f3d
00000100: 1057 643e 61b7 f83d a803 2d3f 0d49 abbc
00000110: 00aa 743c b089 cfbd dfc9 3dbc 6c12 94bc
00000120: f120 993e ea71 eb3d 2025 21bc 0834 4d3c
00000130: bcf3 593e 99dc 283d f36c 55bd 1bd7 993e
00000140: 9140 843d c159 edbc da1f 973e 7680 d8bc
00000150: d8d4 ef3c 7a06 1b3d d0ae 0abd 7a1a 79bd
00000160: 00b1 933d d051 a53b 086e b13e 3147 253e
00000170: 94f7 113d 0438 2b3f 9070 1c3f f2e2 9dbc
00000180: 1f14 013e e5ee a53b 6a7e 3f3d 7dbe 643d
00000190: 1787 9ebd 0cd0 0d3d e0cf 223f cda7 44be
000001a0: 1e25 4c3c bd4f 2bbc 1d93 233f f405 f6bc
000001b0: 2b07 5f3d 80ba ac3b e73e 843d b8c7 a13e
000001c0: 7aa2 353d 7940 04bd b89c 94bd e681 4dbe
000001d0: d6e4 723d ca04 68bd dc63 253d 1018 a03b
000001e0: eea4 3e3d f9c0 98bd aef7 be3d 7d35 b2bd
000001f0: 6a57 e63c 68ae e5bc 1aa4 9b3e 7274 c1bd

nam_layers.1.0.weight f4 [128, 1]
-1.6348993 -0.9448581 1.4612719 -0.820111 -1.2980467 -0.95621055 -1.9079751 -0.31207415
1.374723 1.2107731 1.2134976 0.25545502 -0.9587222 1.2006862 1.3372539 -0.9099635
0.43850458 -1.1629791 -1.264807 -0.7764268 1.419542 1.5976566 -0.75598717 1.0679924
-0.20195103 0.32844234 1.3065606 1.7031754 1.4576207 -1.0863798 1.3627344 -0.16249526
1.9289141 -0.9526794 -0.010650158 -0.46370018 1.6746871 -0.6195879 -0.53905654 -2.0495086
-0.5375358 1.2695682 -0.025261616 -1.8405755 1.2830913 -0.579165 1.4418818 -0.36234415
1.546364 -0.73293257 -0.92421836 -1.4199439 -0.176036 1.2930893 -0.14538181 1.6841922
-0.5307416 1.6399211 1.3550395 -1.8223081 1.3764304 1.3376821 -0.16535759 -0.23516476
-0.58902 0.40119314 -0.05868745 -1.407099 -1.9201411 1.4926478 1.318814 1.1960152
1.0201174 1.2345299 1.9507836 1.1833287 -0.75282454 1.3440328 0.9764757 1.339126
1.293574 1.676775 -1.728799 -1.2927756 1.9033309 0.07761462 -1.7571045 -0.927642
-1.8424811 -0.48237237 0.27047133 -0.14178312 -1.6145822 -0.034212213 -0.4955094 -1.2966058
1.2422098 -0.14930367 -0.45563066 -0.6694801 -1.4609065 -1.5286446 1.2493591 -2.124226
1.0591097 -0.052848816 -0.9177129 -1.0705065 1.246815 1.2332611 1.1271443 0.8985311
1.5430515 -0.7991575 -1.7945105 -0.0007536374 0.7868549 1.0700481 -0.36284173 -1.5471152
-0.36537802 1.503998 1.3297689 -0.08900523 0.85235065 0.55083036 1.4828675 -0.2184509
00000000: 6144 d1bf 38e2 71bf f50a bb3f cbf2 51bf
00000010: 6526 a6bf 37ca 74bf 8738 f4bf 2fc8 9fbe
00000020: ecf6 af3f 9dfa 9a3f e453 9b3f 00cb 823e
00000030: d16e 75bf 16b0 993f 232b ab3f 5ef3 68bf
00000040: ac83 e03e 80dc 94bf 32e5 a1bf e8c3 46bf
00000050: 8db3 b53f 0380 cc3f 6088 41bf fab3 883f
00000060: 40cc 4ebe 9829 a83e 613d a73f a701 da3f
00000070: 5193 ba3f 7e0e 8bbf 156e ae3f 2865 26be
00000080: a8e6 f63f cce2 73bf 007e 2ebc 1c6a edbe
00000090: 265c d63f 509d 1ebf 9cff 09bf 262b 03c0
000000a0: f29b 09bf 3681 a23f 73f1 cebc fa97 ebbf
000000b0: 563c a43f 2844 14bf 958f b83f 2c85 b9be
000000c0: 41ef c53f 78a1 3bbf 9399 6cbf b9c0 b5bf
000000d0: c842 34be f383 a53f f8de 14be 9c93 d73f
000000e0: aede 07bf efe8 d13f ef71 ad3f 6441 e9bf
000000f0: df2e b03f 2b39 ab3f 8053 29be 08cf 70be
00000100: 04ca 16bf 3069 cd3e 4062 70bd d21b b4bf
00000110: 2fc7 f5bf 150f bf3f e6ce a83f 0717 993f
00000120: 3593 823f 1305 9e3f 47b3 f93f 5177 973f
00000130: 1cb9 40bf 4409 ac3f 50fa 793f 7b68 ab3f
00000140: d593 a53f 90a0 d63f 4949 ddbf ac79 a5bf
00000150: 59a0 f33f 6af4 9e3d cde8 e0bf f279 6dbf
00000160: 6cd6 ebbf 83f9 f6be 387b 8a3e 982f 11be
00000170: a1aa cebf 1b22 0cbd 68b3 fdbe 2ef7 a5bf
00000180: bb00 9f3f 10e3 18be 6c48 e9be 0c63 2bbf
00000190: fcfe babf a0aa c3bf 00eb 9f3f 52f3 07c0
000001a0: e890 873f 0078 58bd 3cef 6abf 5b06 89bf
000001b0: a297 9f3f 80db 9d3f 4446 903f 2206 663f
000001c0: b682 c53f 9695 4cbf 85b2 e5bf c08f 45ba
000001d0: 536f 493f 56f7 883f 64c6 b9be df07 c6bf
000001e0: d412 bbbe 0283 c03f de35 aa3f 6048 b6bd
000001f0: a733 5a3f 3803 0d3f 9ace bd3f 98b1 5fbe

nam_layers.1.0.bias f4 [128]
0.39938077 -0.9662366 0.36091053 -0.29879695 0.25530455 0.6281198 0.87530553 0.82922083
0.33924273 0.5551318 -0.29177874 0.5208031 0.45227504 0.5741196 0.16725919 -0.84746337
-0.95714337 0.9946999 0.26283157 -0.45326948 0.58682525 0.201 -0.41014946 0.6253475
-0.8838062 0.35005537 0.8556362 0.21268947 0.48336008 0.7343903 0.3649569 -0.34770012
0.24131106 -0.74560654 -0.35173142 -0.71992874 0.20983931 -0.86333597 -0.8657876 0.49790466
0.9948263 -0.31822053 -0.84886307 0.09563046 -0.3141781 -0.51731575 0.43422708 -0.6635555
0.19278999 -0.6369473 0.8826329 0.2169174 -0.31528938 -0.29792142 -0.3713106 0.21146323
-0.4935348 0.40508696 0.33476692 0.06911117 0.17206137 -0.32599762 -0.98012567 -0.7971767
-0.8629271 0.699037 -0.703035 0.13274737 0.10151074 0.18481205 -0.33090967 0.14852281
0.3972107 0.36916324 0.24590126 0.7018288 -0.8810518 0.7768267 -0.23921464 -0.31077564
0.16448572 0.7973988 0.08121666 0.31418338 0.23960918 0.86275697 0.09445534 -0.7607287
0.06417055 0.7940243 0.47324568 -0.47911716 0.07904326 -0.87522644 1.0313265 -0.16243848
0.3606202 -0.39849532 -0.6439253 -0.75389814 0.90683603 0.3714609 -0.3006536 0.8193638
0.80505764 -0.49876416 -0.9420489 0.4719523 0.30788326 0.34198704 0.6735863 0.22152634
0.45852357 -0.75032794 0.06370938 -0.209218 0.19421887 0.26390266 1.0192169 0.92005026
-0.6377269 0.18896261 0.16856526 -0.47834635 0.23967516 0.4475414 0.18566886 -0.30553746
00000000: a37b cc3e 485b 77bf 44c9 b83e eafb 98be
00000010: 47b7 823e 76cc 203f 0614 603f d147 543f
00000020: 39b1 ad3e 1e1d 0e3f 0664 95be 5a53 053f
00000030: 9890 e73e 81f9 123f fe45 2b3e 5cf3 58bf
00000040: 5907 75bf a7a4 7e3f dc91 863e f012 e8be
00000050: 2e3a 163f f2d2 4d3e 1cff d1be c616 203f
00000060: 2041 62bf 753a b33e f90a 5b3f 45cb 593e
00000070: f97a f73e 0101 3c3f a1db ba3e c005 b2be
00000080: 3f1a 773e 12e0 3ebf 2416 b4be 404d 38bf
00000090: 1ee0 563e 9603 5dbf 42a4 5dbf 5ced fe3e
000000a0: f0ac 7e3f cded a2be 174f 59bf e7d9 c33d
000000b0: f4db a0be ce6e 04bf 0353 de3e c6de 29bf
000000c0: bd6a 453e fa0e 23bf 3bf4 613f 981f 5e3e
000000d0: 9c6d a1be 2889 98be 6c1c bebe d189 583e
000000e0: 98b0 fcbe 8f67 cf3e 9266 ab3e 288a 8d3d
000000f0: db30 303e 29e9 a6be 84e9 7abf c613 4cbf
00000100: cae8 5cbf 17f4 323f 1afa 33bf edee 073e
00000110: dde4 cf3d 5f3f 3d3e fe6c a9be 5d16 183e
00000120: 335f cb3e f702 bd3e 8acd 7b3e 0dab 333f
00000130: 9c8c 61bf 1dde 463f aff4 74be fc1d 9fbe
00000140: f26e 283e 5422 4c3f ec54 a63d a5dc a03e
00000150: 1c5c 753e a4dd 5c3f cd71 c13d 1ebf 42bf
00000160: d96b 833d 2d45 4b3f 424d f23e d84e f5be
00000170: 6fe1 a13d d70e 60bf 8202 843f 4656 26be
00000180: 36a3 b83e 9407 ccbe 4ad8 24bf 78ff 40bf
00000190: 6826 683f 2030 be3e 45ef 99be d3c1 513f
000001a0: 4218 4e3f 045e ffbe 1e2a 71bf bba3 f13e
000001b0: e0a2 9d3e ed18 af3e 2770 2c3f cdd7 623e
000001c0: 9ac3 ea3e 7e15 40bf 107a 823d 3e3d 56be
000001d0: 50e1 463e 401e 873e b375 823f 6a88 6b3f
000001e0: 1242 23bf 6a7f 413e 5f9c 2c3e d0e9 f4be
000001f0: 686d 753e 2524 e53e fa1f 3e3e 686f 9cbe

nam_layers.1.2.weight f4 [1, 128]
-0.64371353 0.068306886 0.59933364 -0.0392166 -0.8115181 -0.28093165 -0.5454106 -0.08464227
0.54740715 0.29274073 -0.6022113 0.03658305 -0.2259929 0.37459803 -1.3469532 0.07998765
-0.1156743 -0.3248941 -0.7553373 -0.08570615 0.39840135 -1.7224827 -0.06380355 0.23852138
0.0425032 0.028765686 0.30801874 -1.4036236 0.48047936 -0.3668603 0.47434446 0.041653328
-1.1699879 0.04879863 0.012901679 -0.04819293 -1.5294073 -0.08704413 0.036810376 -0.6829328
-0.10606477 -0.6987582 -0.030895691 -0.92918175 -0.35835418 -0.05794262 0.45954522 0.027091607
-1.3240584 -0.036601324 -0.1867729 -0.92488545 0.027644917 -0.639104 0.063152485 -1.0827427
0.053666033 0.526682 0.5649631 -0.8738539 -1.1970316 -0.7441715 -0.0289517 -0.03356733
-0.005049333 0.04033939 -0.02454827 -0.6758743 -0.88361055 -1.5126486 -0.5507441 -1.6427653
0.25976026 0.40264073 -1.112402 0.18386841 0.0018796623 0.3180693 -0.76395047 -0.5985217
-1.3335174 0.3861643 -0.7521588 -0.62100357 -1.1930947 -0.038434945 -0.88366497 -0.0237576
-0.83677626 -0.09536125 0.036956202 -0.02239085 -0.7244899 -0.07225397 -0.09694819 -0.9873711
0.4414524 0.03076449 0.005734049 0.06412103 -0.4269952 -0.7309252 -0.5655166 -0.5793546
0.15044038 -0.066460006 -0.051128384 -0.48783103 0.5658876 0.42114258 0.15301666 0.412306
0.43041775 0.043114237 -0.80864304 -0.04793386 0.64869595 0.46586147 -0.10890165 -0.44787234
0.06888687 -1.167503 -1.4995824 -0.0478405 0.2644878 0.066649735 -1.1503912 -0.03369259
00000000: 69ca 24bf 7be4 8b3d ee6d 193f 96a1 20bd
00000010: a6bf 4fbf 46d6 8fbe 07a0 0bbf ed58 adbd
00000020: e022 0c3f 1de2 953e 852a 1abf 1cd8 153d
00000030: af6a 67be 50cb bf3e f668 acbf 91d0 a33d
00000040: a6e6 ecbd 8558 a6be c95d 41bf b586 afbd
00000050: 43fb cb3e 507a dcbf 70ab 82bd f33e 743e
00000060: d617 2e3d 04a6 eb3c a2b4 9d3e f0a9 b3bf
00000070: 6401 f63e 1dd5 bbbe 47dd f23e ae9c 2a3d
00000080: 2ac2 95bf 12e1 473d 9061 533c f365 45bd
00000090: 9ec3 c3bf 3144 b2bd 7ac6 163d afd4 2ebf
000000a0: 7c38 d9bd d1e1 32bf f618 fdbc dbde 6dbf
000000b0: 337a b7be 3e55 6dbd 8349 eb3e 38ef dd3c
000000c0: bf7a a9bf 45eb 15bd 6541 3fbe 4bc5 6cbf
000000d0: 9877 e23c 529c 23bf 1756 813d 5097 8abf
000000e0: ead0 5b3d a2d4 063f 6ca1 103f e4b4 5fbf
000000f0: 5538 99bf 0682 3ebf 1e2c edbc e67d 09bd
00000100: e074 a5bb eb3a 253d 7419 c9bc 1906 2dbf
00000110: 4d34 62bf 789e c1bf 91fd 0cbf 2246 d2bf
00000120: 4cff 843e ed26 ce3e 3063 8ebf 0048 3c3e
00000130: 005f f63a fbd9 a23e 4292 43bf b838 19bf
00000140: b3b0 aabf 54b7 c53e 7b8d 40bf 17fa 1ebf
00000150: 54b7 98bf f66d 1dbd de37 62bf 4c9f c2bc
00000160: f836 56bf c24c c3bd 635f 173d 046d b7bc
00000170: 2c78 39bf e4f9 93bd c68c c6bd 5ac4 7cbf
00000180: 0d06 e23e d005 fc3c b0e4 bb3b e351 833d
00000190: 1d9f dabe ea1d 3bbf b2c5 10bf 9550 14bf
000001a0: 0b0d 1a3e 2f1c 88bd ff6b 51bd fdc4 f9be
000001b0: 02de 103f 00a0 d73e 66b0 1c3e c619 d33e
000001c0: b75f dc3e 8e98 303d 3b03 4fbf 4c56 44bd
000001d0: f010 263f 6585 ee3e d407 dfbd 864f e5be
000001e0: 8f14 8d3d bd70 95bf 51f2 bfbf 66f4 43bd
000001f0: f26a 873e a87f 883d 0540 93bf 3e01 0abd

nam_layers.2.0.weight f4 [128, 1]
0.85830086 1.2299855 -0.3294326 -0.6067712 -0.48565388 -0.387666 -0.49775591 -0.4982361
-1.4094313 -0.7576238 0.73376876 -0.0064887144 -0.9180186 0.70769525 0.012614439 0.18055272
0.8285934 -0.34896684 1.0102528 -0.59052956 0.20747435 -0.16417485 -0.461902 1.0514346
1.1068587 0.837559 1.3049335 -0.92636275 1.0687649 -0.22581315 -0.21132064 -0.89558554
0.39728153 1.1829437 0.32678849 -0.36308062 -0.4994188 -0.5155667 0.07427355 -0.6591861
-0.51184285 0.14391164 -0.61368704 -0.305997 1.3172996 -0.61866796 0.38325116 -0.3856753
0.6024324 -0.30483568 1.0957698 -0.06810093 -0.7092966 -1.2708142 0.65405214 -1.0973076
0.22486606 -1.0202689 -0.26494047 -0.061511755 -1.325094 -0.04703307 1.0143299 0.26361308
-0.44716066 -0.8191986 -0.32231075 0.31106701 0.83351225 -0.059034705 0.13315904 -0.9949322
-0.8405247 -1.2770045 0.20118836 -0.51887363 -0.055038452 -0.23051584 -0.09143722 0.5830398
-0.3694924 1.0311975 -0.41829416 1.2874023 0.31204155 1.0147974 -0.40292478 -1.069646
0.6268641 -0.5295187 -0.18868029 -0.11844432 0.97428906 -0.87578154 -1.0588847 1.0643989
1.1011267 0.98886424 -0.5665908 0.21066782 0.6369555 0.94011253 -0.45106968 -0.6270359
0.051342126 0.17761299 0.6282081 -1.1011028 -0.695696 -0.7215272 1.102871 0.3716303
0.08875125 -0.35338676 0.83423954 -0.8523629 0.58748925 -0.87853765 -0.4902359 0.8616665
-0.8647381 -0.014380715 1.2005256 0.32528308 -0.6708596 0.22474554 -0.7218057 0.7765974
00000000: 9bb9 5b3f 2a70 9d3f 64ab a8be 5b55 1bbf
00000010: a0a7 f8be 287c c6be ddd9 febe cd18 ffbe
00000020: 3f68 b4bf a2f3 41bf 45d8 3b3f 489f d4bb
00000030: 4403 6bbf 842b 353f cbac 4e3c d0e2 383e
00000040: b21e 543f c8ab b2be f74f 813f f22c 17bf
00000050: 2874 543e 741d 28be 6b7e ecbe 6995 863f
00000060: 8cad 8d3f 446a 563f 1008 a73f 1c26 6dbf
00000070: 4acd 883f 903b 67be 7064 58be 1845 65bf
00000080: 7c68 cb3e b36a 973f d250 a73e b4e5 b9be
00000090: d2b3 ffbe 2efc 03bf bb1c 983d 6cc0 28bf
000000a0: 2208 03bf 935d 133e 981a 1dbf a4ab 9cbe
000000b0: 469d a83f 0661 1ebf 7f39 c43e 3c77 c5be
000000c0: 0339 1a3f 6c13 9cbe 2f42 8c3f 8078 8bbd
000000d0: 7694 35bf 0aaa a2bf f66f 273f 9374 8cbf
000000e0: 4a43 663e 2c98 82bf 47a6 87be c0f3 7bbd
000000f0: ae9c a9bf c0a5 40bd 90d5 813f 4bf8 863e
00000100: 3ef2 e4be 00b7 51bf ea05 a5be 2d44 9f3e
00000110: 0f61 553f 60ce 71bd d85a 083e e0b3 7ebf
00000120: a02c 57bf e274 a3bf 5204 4e3e e7d4 04bf
00000130: 0070 61bd 580c 6cbe 7043 bbbd 1942 153f
00000140: 1c2e bdbe 48fe 833f a72a d6be 99c9 a43f
00000150: e9c3 9f3e e2e4 813f 284c cebe 29ea 88bf
00000160: 2a7a 203f 8a8e 07bf 6835 41be f092 f2bd
00000170: 026b 793f 3833 60bf 8989 87bf 393e 883f
00000180: b8f1 8c3f 3526 7d3f 180c 11bf 4eb9 573e
00000190: 840f 233f 37ab 703f 9bf2 e6be 6d85 20bf
000001a0: 1f4c 523d 2ee0 353e 3fd2 203f f0f0 8cbf
000001b0: 2219 32bf 02b6 38bf e02a 8d3f 5446 be3e
000001c0: 37c3 b53d 1cef b4be b990 553f 7434 5abf
000001d0: b265 163f d8e7 60bf 3300 fbbe 2d96 5c3f
000001e0: 7a5f 5dbf 179d 6bbc d3aa 993f 818b a63e
000001f0: 74bd 2bbf b223 663e 42c8 38bf 16cf 463f

nam_layers.2.0.bias f4 [128]
0.2152152 0.32644963 0.75179905 0.3292915 -0.81936777 -0.624655 0.2640922 0.28695834
0.7529776 -0.25269926 -0.7259666 -0.36311904 -0.99324656 -0.69712186 0.5915198 0.2023499
-0.8091144 0.82829714 0.7023509 -0.6089691 -1.6146952 0.7403401 0.96603 0.13621657
-1.0813289 0.3825936 0.15313315 -0.0961678 -1.0533478 -0.8954942 -0.38307536 -0.47304356
0.66246176 0.17813484 0.8892208 -0.39478135 0.22921456 -0.6309484 0.85561675 0.37348616
0.23348242 0.64532137 -0.678321 -0.52331805 -0.912135 -0.8442259 0.5338704 -0.040870905
-0.5968806 -0.914307 -1.0801599 -0.28408182 0.60920346 0.5758949 0.5243638 0.3464654
0.608232 0.5488289 0.88022345 0.45973226 0.9724271 -0.121635556 0.12447803 0.47921395
0.1973538 -0.10578191 0.1547846 0.16295929 -0.33503702 -0.39876652 0.15475507 -0.7811024
0.43632716 0.3565537 -1.4979218 0.914574 -0.51825297 -0.13433528 -0.8638624 0.36301404
-0.04182279 0.1564511 0.94160646 -1.1707339 0.8349298 0.7244603 -0.90537727 0.75197095
0.3958647 -0.84171045 -0.4664111 -0.958707 0.6504678 -0.4555602 0.7145675 -1.046759
-0.9447406 0.7775987 -0.87879634 -1.5758677 0.52453226 0.74785507 0.74536437 0.9550364
0.30475816 0.5832213 -0.6204619 0.31004363 -0.15237069 -0.37628853 0.94967735 0.48454747
0.10593489 -0.379449 0.19359754 -0.4428842 0.3529188 0.43461278 0.222529 0.15046366
-0.7996249 -0.59273 0.6433803 0.9449563 -0.12145758 -1.6959829 -0.6809851 0.642345
00000000: 6061 5c3e 6824 a73e e775 403f e598 a83e
00000010: 16c2 51bf 64e9 1fbf 1837 873e 34ec 923e
00000020: 24c3 403f cc61 81be f2d8 39bf bdea b9be
00000030: 6845 7ebf 9476 32bf d76d 173f d034 4f3e
00000040: 1f22 4fbf 480b 543f 45cd 333f 66e5 1bbf
00000050: 55ae cebf ee86 3d3f be4d 773f 5b7c 0b3e
00000060: fc68 8abf 4fe3 c33e f0ce 1c3e a0f3 c4bd
00000070: 1ad4 86bf 1c3f 65bf 7422 c4be c432 f2be
00000080: 1897 293f fb68 363e f9a3 633f c820 cabe
00000090: 39b7 6a3e d685 21bf b309 5b3f 9439 bf3e
000000a0: 0416 6f3e c833 253f 72a6 2dbf 2cf8 05bf
000000b0: ae81 69bf 301f 58bf bbab 083f 4068 27bd
000000c0: 2bcd 18bf 0610 6abf ae42 8abf 2c73 91be
000000d0: c2f4 1b3f d96d 133f b53c 063f ea63 b13e
000000e0: 18b5 1b3f 0d80 0c3f 5356 613f 0762 eb3e
000000f0: fcf0 783f 101c f9bd 56ee fe3d 885b f53e
00000100: 1d17 4a3e 30a4 d8bd db7f 1e3e cdde 263e
00000110: f989 abbe 202b ccbe 1d78 1e3e 54f6 47bf
00000120: 4666 df3e 358e b63e e7bb bfbf 8621 6a3f
00000130: 3aac 04bf 308f 09be 1626 5dbf fadc b93e
00000140: 604e 2bbd b834 203e 1f0d 713f 9cda 95bf
00000150: f6bd 553f 3b76 393f cec6 67bf 2b81 403f
00000160: c7ae ca3e 567a 57bf 70cd eebe d26d 75bf
00000170: 0f85 263f 303f e9be e5ed 363f 33fc 85bf
00000180: 85da 71bf b510 473f ccf8 60bf 08b6 c9bf
00000190: bf47 063f 6e73 3f3f 33d0 3e3f 447d 743f
000001a0: 4309 9c3e fe4d 153f 97d6 1ebf 0abe 9e3e
000001b0: 1007 1cbe e4a8 c0be 0e1e 733f 9b16 f83e
000001c0: 64f4 d83d 2447 c2be 6f3e 463e b8c1 e2be
000001d0: c6b1 b43e 9185 de3e a4de 633e 2513 1a3e
000001e0: 38b4 4cbf 27bd 17bf 92b4 243f a8e8 713f
000001f0: c0be f8bd f815 d9bf 0a55 2ebf b970 243f

nam_layers.2.2.weight f4 [1, 128]
0.15586826 0.14468081 -0.018258963 -0.033437166 -0.074674025 -0.05291999 -0.029528016 -0.02349159
-0.10575032 -0.059692517 -0.40445188 -0.015353472 -0.010959499 -0.36689574 0.037735563 0.048872165
-0.65696204 0.015105944 0.14167508 0.023361363 0.5693225 -0.049424913 -0.051671043 0.31908527
-1.1453285 0.1570334 0.36617416 -0.057385273 -0.42205948 -0.048898414 0.022091135 -0.085886106
-0.030172568 0.44228673 0.062992096 -0.0084487125 -0.107416324 -0.040416837 0.08510744 -0.09025215
-0.16046113 0.016691152 0.04390181 -0.017857686 -0.4483675 -0.0012219325 0.083066516 0.032845944
-0.27231908 0.04406806 -0.63622636 0.048397563 -0.01797109 -0.08007318 0.02206602 -0.3697597
0.03959476 -0.1057889 -0.059236836 0.03536478 -0.13714275 0.057450794 0.34749353 0.0406737
-0.14389946 -0.0026799813 -0.08117539 0.10017887 -0.18233773 -0.057098936 -0.023956854 -0.018167444
-0.049867943 -0.26778805 0.52155954 0.014280877 -0.005241573 -0.06277663 -0.011672735 0.07884635
0.019585237 0.38292703 0.028193092 -0.51068956 0.037970588 0.07463476 0.028771974 -0.031162107
0.08253076 0.041344322 -0.037129235 0.059614144 0.1100454 0.0010167211 -0.06882076 -0.42731842
-0.3502414 0.06782615 -0.0034894422 0.27057594 0.06805998 0.06447758 -0.0036923236 0.0065497956
0.047114722 0.07841773 -0.35428572 -0.29860392 -0.011189967 0.015991472 0.08629394 0.02192104
0.09123541 0.08360087 0.278991 -0.08339978 0.08580374 -0.11844703 -0.09415468 0.20097087
0.07711955 0.013603067 0.09926794 -0.027034063 0.067801304 0.7195113 -0.04826202 0.095368
00000000: ee9b 1f3e 3527 143e d293 95bc 69f5 08bd
00000010: b2ee 98bd a2c2 58bd bde4 f1bc 6f71 c0bc
00000020: a093 d8bd 2480 74bd 5114 cfbe 218d 7bbc
00000030: 788f 33bc c2d9 bbbe 9b90 1a3d 2e2e 483d
00000040: aa2e 28bf ec7e 773c 4613 113e 5460 bf3c
00000050: 1fbf 113f c771 4abd 04a5 53bd 255f a33e
00000060: 209a 92bf 5dcd 203e 2e7b bb3e d20c 6bbd
00000070: 2e18 d8be b449 48bd 78f8 b43c 0ee5 afbd
00000080: 762c f7bc 6873 e23e 0002 813d 786c 0abc
00000090: 17fd dbbd 208c 25bd cf4c ae3d 1fd6 b8bd
000000a0: ec4f 24be e2bb 883c 62d2 333d 484a 92bc
000000b0: 6d90 e5be 4029 a0ba c71e aa3d 7889 063d
000000c0: 686d 8bbe b680 343d bbdf 22bf 863c 463d
000000d0: 1b38 93bc 68fd a3bd ccc3 b43c 2551 bdbe
000000e0: 1d2e 223d daa7 d8bd 53a2 72bd a9da 103d
000000f0: 266f 0cbe 8651 6b3d acea b13e 7799 263d
00000100: 615a 13be a0a2 2fbb 483f a6bd 942a cd3d
00000110: beb6 3abe 93e0 69bd 2a41 c4bc e4d3 94bc
00000120: 5442 4cbd 841b 89be ed84 053f 57fa 693c
00000130: 80c1 abbb 0991 80bd 003f 3fbc 327a a13d
00000140: 3871 a03c 030f c43e 33f5 e63c 8dbc 02bf
00000150: 0c87 1b3d 1cda 983d 34b3 eb3c ad47 ffbc
00000160: e305 a93d aa58 293d d314 18bd f62d 743d
00000170: 7c5f e13d 8043 853a e6f1 8cbd 7bc9 dabe
00000180: d752 b3be 70e8 8a3d 20af 64bb ee88 8a3e
00000190: 0863 8b3d d20c 843d e9fa 71bb ab9f d63b
000001a0: 5efb 403d 7a99 a03d f064 b5be 9de2 98be
000001b0: 2056 37bc 8c00 833c e1ba b03d c193 b33c
000001c0: a1d9 ba3d ef36 ab3d e9d7 8e3e 81cd aabd
000001d0: dfb9 af3d 5b94 f2bd 2bd4 c0bd 4fcb 4d3e
000001e0: dbf0 9d3d 66df 5e3c fd4c cb3d 8a76 ddbc
000001f0: 69db 8a3d e431 383f 65ae 45bd 4c50 c33d

nam_layers.3.0.weight f4 [128, 1]
-1.4094248 -1.7714968 -1.786749 -0.7601936 -0.58604765 1.1186583 1.3856302 -0.96325874
-1.7068378 -0.47153175 -0.14385521 1.5911585 1.0127472 -0.8155917 -0.42937207 0.92303807
1.4196131 1.1116451 -0.12852097 1.8001894 -0.74458206 -0.8603694 -0.09436047 0.9162833
-0.77489287 -1.7781036 -1.7848656 0.80169326 -0.7187277 1.21666 -0.17553717 -1.8872156
-0.36871707 1.1410193 0.93648577 -0.11082697 0.92424124 0.3772846 1.3262984 -0.86075056
1.0616822 -1.7588876 1.4964651 -1.2748637 1.6345266 1.0500175 0.95915294 -0.97056246
-0.61698353 -0.7031243 -1.2399242 0.90816027 -0.41706085 -0.2998054 1.0934083 -0.33965492
-1.9349787 -0.3934611 1.1434153 1.033468 1.6532617 -0.36185253 -1.61679 -0.37335774
0.57986116 0.7318426 -0.59659016 -1.3601506 0.9151083 0.92576826 -1.7635394 -1.155099
-1.4692963 1.2448801 -0.72461057 1.754699 -0.25320888 -0.6794332 1.0505724 -1.1956384
-0.78105253 0.843775 -1.0343217 -0.5275184 -0.078587055 -0.84886986 -1.2781794 0.7982942
-1.5719882 -1.4354249 0.9947678 -0.6895876 0.78905934 -0.56638193 1.1297103 0.4521499
-1.5390769 -1.3515731 -1.7896284 -1.1406924 -0.23395538 0.9876705 -0.35145319 1.4897871
1.41889 1.0564301 1.1175275 -1.781206 -1.1335455 1.7297044 1.390999 -1.8338369
1.4317694 0.76082915 -1.4217077 0.46990862 1.0200124 -1.4854989 0.87907284 1.6979235
0.831999 -1.7983284 0.6990834 -1.1155818 -0.7391 -1.6047875 1.0844874 1.7955738
00000000: 0868 b4bf 68c0 e2bf 31b4 e4bf 0c9c 42bf
00000010: 3807 16bf 3230 8f3f 555c b13f 2098 76bf
00000020: a979 dabf 9c6c f1be c84e 13be 15ab cb3f
00000030: b3a1 813f 9eca 50bf a8d6 dbbe 394c 6c3f
00000040: e2b5 b53f 634a 8e3f 009b 03be 9b6c e63f
00000050: ee9c 3ebf 2b41 5cbf 1040 c1bd 8b91 6a3f
00000060: 615f 46bf e698 e3bf 7a76 e4bf c53b 4d3f
00000070: 8afe 37bf 84bb 9b3f 04c0 33be 4890 f1bf
00000080: 7cc8 bcbe ec0c 923f 88bd 6f3f 40f9 e2bd
00000090: 139b 6c3f 722b c13e 25c4 a93f 265a 5cbf
000000a0: 34e5 873f 3b23 e1bf 2b8c bf3f bc2e a3bf
000000b0: 2b38 d13f f966 863f 0c8b 753f c876 78bf
000000c0: a2f2 1dbf f4ff 33bf d6b5 9ebf 317d 683f
000000d0: 0089 d5be 1880 99be cef4 8b3f 40e7 adbe
000000e0: 62ad f7bf bc73 c9be 6f5b 923f ae48 843f
000000f0: 149e d33f bc44 b9be faf2 cebf bf28 bfbe
00000100: c871 143f 095a 3b3f 22ba 18bf 6a19 aebf
00000110: 8a44 6a3f 26ff 6c3f a9bb e1bf 49da 93bf
00000120: e711 bcbf 3b58 9f3f 1480 39bf fa99 e03f
00000130: 98a4 81be 56ef 2dbf 2879 863f ae0a 99bf
00000140: 0ff3 47bf a301 583f a764 84bf 720b 07bf
00000150: 40f2 a0bd 894f 59bf 629b a3bf 025d 4c3f
00000160: e936 c9bf 01bc b7bf 1aa9 7e3f d088 30bf
00000170: cbff 493f 68fe 10bf 599a 903f 3180 e73e
00000180: 7900 c5bf 5900 adbf 8b12 e5bf 3502 92bf
00000190: 0092 6fbe f9d7 7c3f acf1 b3be 58b1 be3f
000001a0: 309e b53f 1a39 873f 240b 8f3f 8ffe e3bf
000001b0: 0518 91bf f466 dd3f 410c b23f 2bbb eabf
000001c0: 3844 b73f b3c5 423f 85fa b5bf dd97 f03e
000001d0: c48f 823f d424 bebf eb0a 613f 8f55 d93f
000001e0: e3fd 543f a02f e6bf 21f7 323f 62cb 8ebf
000001f0: a835 3dbf ad69 cdbf 7cd0 8a3f 5dd5 e53f

nam_layers.3.0.bias f4 [128]
0.45373014 -0.09172026 0.1951281 -0.7167201 -0.87313676 0.90240645 0.46477932 0.37151822
-0.07168066 -0.46883702 -0.08772969 0.9059453 0.8837293 -0.36800778 -0.252131 -0.27374664
0.47347426 0.37207198 -0.93522394 1.0043932 0.85680383 0.34243235 -0.97407675 0.63809544
-0.34888667 -0.009287175 0.3084795 -0.55863065 -0.7063037 1.0118423 -0.16218011 0.31432134
-0.51025534 0.38423893 -0.667039 -0.6112459 -0.693336 -0.62870526 0.5978134 0.572482
0.35741463 0.15201424 0.9857068 0.1353029 0.8800588 0.8330451 -0.73004955 -0.7704356
-0.6003288 -0.7242056 0.7990153 -0.6992258 0.6119983 -0.2236476 0.75828797 -0.48474598
0.03044171 -0.20318556 0.9283156 -0.30629054 0.5482785 -0.84260917 0.38290846 -0.15882383
-0.81935084 -0.682023 -0.68087304 0.6925427 0.07734838 0.35505685 0.7349436 0.043067086
0.03423388 0.9023241 -0.37947512 0.9349715 -0.98682904 -0.4902041 -0.7469596 0.33805096
-0.34225667 -0.79147726 0.049787395 -0.8130704 -0.52931094 0.85594225 -0.1044853 0.26702693
0.45023325 0.8038395 0.33253902 -0.6306486 0.55642974 -0.31783342 0.47958362 -0.52654904
0.25191703 0.27628028 -0.032016788 -0.04007799 -0.7929902 0.86656576 -0.91167533 0.4932177
0.71032023 1.0289125 0.3736717 0.59813267 0.5592219 0.7005801 0.6958715 0.012180757
0.73314404 -0.25000578 0.8169058 0.028522518 -0.41473752 -0.09250342 0.33587652 0.9314427
-0.4298333 0.6324499 -0.7090942 0.16605125 -0.27996564 -0.04257025 0.6685056 0.65211976
00000000: 514f e83e d5d7 bbbd a9cf 473e f87a 37bf
00000010: e485 5fbf 1c04 673f 8ef7 ed3e a337 be3e
00000020: 4fcd 92bd 680b f0be a0ab b3bd 08ec 673f
00000030: 153c 623f 846b bcbe 5017 81be 8528 8cbe
00000040: 386b f23e 3880 be3e d66a 6fbf f58f 803f
00000050: 7f57 5b3f 4b53 af3e 185d 79bf 395a 233f
00000060: 46a1 b2be 3c29 18bc 06f1 9d3e 6b02 0fbf
00000070: 52d0 34bf 0c84 813f 8b12 26be baee a03e
00000080: 18a0 02bf f7ba c43e 11c3 2abf 9c7a 1cbf
00000090: 787e 31bf d4f2 20bf 4d0a 193f 2e8e 123f
000000a0: 0dff b63e 9fa9 1b3e 4857 7c3f d88c 0a3e
000000b0: 894b 613f 7242 553f 87e4 3abf 443b 45bf
000000c0: 26af 19bf 8a65 39bf 448c 4c3f 7600 33bf
000000d0: ecab 1c3f e003 65be 291f 423f a030 f8be
000000e0: e560 f93c e00f 50be 17a6 6d3f 1dd2 9cbe
000000f0: fb5b 0c3f 3cb5 57bf 940c c43e b7a2 22be
00000100: fac0 51bf 0f99 2ebf b24d 2ebf 7a4a 313f
00000110: d468 9e3d 03ca b53e 4425 3c3f 1d67 303d
00000120: d338 0c3d b6fe 663f 904a c2be 4b5a 6f3f
00000130: d4a0 7cbf 08fc fabe bf38 3fbf 0415 ad3e
00000140: 443c afbe 419e 4abf deed 4b3d 6225 50bf
00000150: ec80 07bf 081f 5b3f 64fc d5bd c1b7 883e
00000160: f984 e63e 6dc8 4d3f 8e42 aa3e 3072 21bf
00000170: 2e72 0e3f 10bb a2be fc8b f53e ebcb 06bf
00000180: 45fb 803e 9c74 8d3e 0924 03bd d228 24bd
00000190: 6801 4bbf 41d7 5d3f 8e63 69bf 0887 fc3e
000001a0: 8cd7 353f 68b3 833f e651 bf3e 391f 193f
000001b0: 2b29 0f3f 3859 333f a224 323f cc91 473c
000001c0: 54af 3b3f c200 80be bd20 513f 0ea8 e93c
000001d0: 7a58 d4be 6f72 bdbd 02f8 ab3e 0773 6e3f
000001e0: 1c13 dcbe 3de8 213f 3387 35bf 5709 2a3e
000001f0: a857 8fbe 245e 2ebd 2f23 2b3f 52f1 263f

nam_layers.3.2.weight f4 [1, 128]
-0.4868544 -0.9705699 -0.61158454 0.08386683 0.00903146 0.41334206 0.9691855 -0.27122593
-0.7919539 -0.039231665 -0.049106903 0.6707439 0.4329184 -0.06695749 -0.03898731 0.21520962
0.8775205 1.0414015 0.049074568 0.6974959 -0.15853848 -0.16839428 0.07729172 0.40682653
-0.016054675 -0.85759336 -0.5542788 0.31450915 0.014331922 0.43126935 -0.038102765 -0.6495642
-0.050879315 1.0720067 0.25801188 -0.061924532 0.24682036 0.1755679 0.7896725 -0.14458777
1.175737 -0.68209386 0.5860779 -0.552299 0.75361127 0.44878775 0.26295763 0.08640491
-0.018556215 0.028652467 -0.2656255 0.23279287 -0.08932091 0.037021123 0.5272226 -0.0033463836
-0.79531103 -0.025392527 0.42018527 0.28348783 0.85678095 -0.028334253 -0.47826275 -0.0943608
0.2156944 0.32950068 -0.08310281 -0.3656405 0.22057544 0.6854432 -0.35695612 -0.53474253
-0.6556189 0.49756286 0.0827521 0.64791644 0.029877774 -0.0062793717 0.24197306 -0.5200423
-0.01410203 0.21319874 -0.5477404 -0.022900194 -0.018520117 -0.2038956 -0.9208444 1.1774116
-0.3952691 -0.29612827 0.9621451 -0.06581068 0.30128115 -0.07852552 0.7289371 0.30354476
-0.65043426 -0.3709654 -0.77290636 -0.70316434 -0.08585349 0.35811427 -0.009603798 0.71579415
0.8135322 0.320168 1.03941 -0.48466554 -0.40301085 0.78843606 0.8083404 -0.84591913
0.7170969 0.29858384 -0.36075094 0.26502976 0.27577558 -0.93823206 0.9586064 0.7199739
0.34097633 -0.48582104 0.18279001 -0.44997537 0.08543942 -0.8639621 0.48299164 0.72715586
00000000: fb44 f9be 4577 78bf ce90 1cbf 5fc2 ab3d
00000010: b0f8 133c 92a1 d33e 8a1c 783f 20de 8abe
00000020: 7ebd 4abf 62b1 20bd 5224 49bd dfb5 2b3f
00000030: 7ba7 dd3e 0221 89bd 28b1 1fbd e95f 5c3e
00000040: 2fa5 603f a54c 853f 6a02 493d 178f 323f
00000050: e957 22be 8d6f 2cbe 1f4b 9e3d 914b d03e
00000060: 1885 83bc 3d8b 5bbf 37e5 0dbf 5807 a13e
00000070: 70d0 6a3c 56cf dc3e a511 1cbd d749 26bf
00000080: d466 50bd 8437 893f 221a 843e 94a4 7dbd
00000090: 7abe 7c3e 12c8 333e fa27 4a3f d10e 14be
000000a0: 8d7e 963f b49d 2ebf 3409 163f 7863 0dbf
000000b0: abec 403f 82c7 e53e 62a2 863e 0ff5 b03d
000000c0: 3403 98bc 94b8 ea3c 1100 88be 4161 6e3e
000000d0: e2ed b6bd 76a3 173d 0ff8 063f 004f 5bbb
000000e0: 8199 4bbf fd03 d0bc 8622 d73e 5125 913e
000000f0: ff55 5b3f 3c1d e8bc dbde f4be 3c40 c1bd
00000100: fede 5c3e 50b4 a83e ce31 aabd 3b35 bbbe
00000110: 87de 613e 3579 2f3f f4c2 b6be e3e4 08bf
00000120: a4d6 27bf 8fc0 fe3e ef79 a93d dadd 253f
00000130: 3cc2 f43c 30c3 cdbb c9c7 773e 7e21 05bf
00000140: 330c 67bc c550 5a3e b738 0cbf 3099 bbbc
00000150: 80b7 97bc 02ca 50be 75bc 6bbf 6cb5 963f
00000160: b660 cabe 209e 97be 244f 763f c0c7 86bd
00000170: 8641 9a3e fdd1 a0bd 9f9b 3a3f 386a 9b3e
00000180: dc82 26bf 2def bdbe 31dd 45bf 9402 34bf
00000190: f4d3 afbd c15a b73e 4059 1dbc 493e 373f
000001a0: a543 503f 0fed a33e 630b 853f 1526 f8be
000001b0: 7057 cebe f2d6 493f 65ef 4e3f 288e 58bf
000001c0: aa93 373f fbdf 983e 59b4 b8be fbb1 873e
000001d0: 7532 8d3e fa2f 70bf 3b67 753f 3650 383f
000001e0: 7394 ae3e 89bd f8be 4e2d 3b3e 2c63 e6be
000001f0: ddfa ae3d 9f2c 5dbf ae4a f73e e326 3a3f

nam_layers.4.0.weight f4 [128, 1]
0.45582882 -0.5327482 0.018948568 -0.20573783 0.65898806 -0.48089257 0.81729853 -0.4055433
0.9100164 -0.48789895 -0.17635751 -0.055010285 0.48363486 -0.65966344 0.78951484 0.64621735
-0.9483991 0.42143083 0.8260856 0.25043496 0.31928238 0.1893084 -0.12039745 0.90292984
-0.20748329 0.28086892 -0.7512162 -0.28787097 0.40659025 0.92574066 0.9799627 0.97822684
-0.38412225 0.4809994 -0.16532138 0.42227092 -0.6499099 0.9260168 0.42118958 -0.79504657
-0.6183668 0.61242485 0.85584396 0.35586882 -0.8065208 -0.15043059 -0.9166751 0.67773324
0.9995929 0.96185213 -0.71235865 0.7907077 -0.5123619 0.69377273 -0.44058526 -0.83467984
0.5235428 0.06759572 0.86883277 -0.009931049 -0.24450858 0.8402331 0.07997906 0.16074753
-0.7063062 0.7321665 -0.80240405 0.32855326 0.45391175 0.23790222 0.42067108 -0.063767135
0.67591655 0.7758905 1.0567306 -0.17229387 0.3975139 0.49738595 0.078490324 1.055973
0.4189815 0.34585667 -0.6215647 -0.8118725 0.50466186 -0.825745 -0.7859444 0.34813896
0.3226663 -0.1156457 0.33188665 -0.14578642 -0.06383277 -0.067247696 -0.028410502 0.123042725
0.12519296 0.117780685 0.6346974 -0.70351255 0.21297564 -0.532935 0.030095816 0.4433868
-0.8941369 -0.9094403 0.6921063 -0.11640547 -0.30564845 -0.21985257 0.6805276 1.1518072
-0.9684811 1.0934952 0.1327318 0.1783895 0.8066565 0.65670234 -0.10324502 0.35784522
-0.65953517 0.7676956 -0.12835717 0.72627103 1.0327603 -0.15744242 0.105150364 -0.3809812
00000000: 6562 e93e 3062 08bf 073a 9b3c f0ac 52be
00000010: 71b3 283f 8d37 f6be 7a3a 513f 5fa3 cfbe
00000020: d6f6 683f e4cd f9be 1097 34be 7752 61bd
00000030: fd9e f73e b4df 28bf a51d 4a3f 806e 253f
00000040: 49ca 72bf c8c5 d73e 597a 533f 0339 803e
00000050: fb78 a33e 10da 413e f092 f6bd 6926 673f
00000060: 8076 54be 0dce 8f3e b44f 40bf d363 93be
00000070: 992c d03e 57fd 6c3f d6de 7a3f 136d 7a3f
00000080: acab c4be 8e45 f63e 024a 29be e533 d83e
00000090: 7f60 26bf 700f 6d3f 29a6 d73e 2c88 4bbf
000000a0: 494d 1ebf e0c7 1c3f 9718 5b3f 7034 b63e
000000b0: 2678 4ebf 7a0a 1abe 38ab 6abf ed7f 2d3f
000000c0: 52e5 7f3f f13b 763f 235d 36bf d26b 4a3f
000000d0: 262a 03bf 179b 313f 6494 e1be 94ad 55bf
000000e0: e706 063f a06f 8a3d d36b 5e3f d7b5 22bc
000000f0: 7560 7abe 8419 573f 10cc a33d 009b 243e
00000100: 7cd0 34bf 446f 3b3f 5a6a 4dbf 2238 a83e
00000110: 1f67 e83e a49c 733e 3362 d73e 5898 82bd
00000120: de08 2d3f c3a0 463f f342 873f ce6d 30be
00000130: f186 cb3e 5fa9 fe3e 89bf a03d 202a 873f
00000140: be84 d63e 2014 b13e dd1e 1fbf e0d6 4fbf
00000150: 8531 013f 0664 53bf a733 49bf 453f b23e
00000160: 8434 a53e a7d7 ecbd 0ced a93e 0949 15be
00000170: c1ba 82bd 29b9 89bd 24bd e8bc d3fd fb3d
00000180: 9532 003e 0037 f13d 877b 223f 6619 34bf
00000190: 4916 5a3e 6e6e 08bf 808b f63c 9803 e33e
000001a0: 28e6 64bf 14d1 68bf e12d 313f fe65 eebd
000001b0: f47d 9cbe 0821 61be 0f37 2e3f 6b6e 933f
000001c0: 61ee 77bf a7f7 8b3f d8ea 073e bdab 363e
000001d0: 0a81 4e3f a51d 283f 2072 d3bd 7d37 b73e
000001e0: 4cd7 28bf b387 443f 1070 03be e6ec 393f
000001f0: 7d31 843f 9638 21be 1359 d73d f80f c3be

nam_layers.4.0.bias f4 [128]
-0.668002 -0.7699913 0.653565 -0.53886425 -0.08407843 0.64179146 -0.13297677 0.4527063
-0.20833336 -0.85247135 -0.2658124 0.30840874 0.47496444 -0.1617867 0.57266384 -0.3061599
0.7912548 -0.148511 -0.10440357 0.30025995 0.75013244 0.7335256 -0.8560766 -0.6231821
0.02353455 -0.13675486 -0.21228826 0.308813 -0.7876832 0.28044912 -0.3561681 0.14589505
-0.37124515 0.031733908 0.5642209 0.9868775 -0.08017531 -0.16095942 -0.03594522 -0.4553498
0.5999762 0.7033476 0.09618149 0.5942067 -0.9962219 0.377999 -0.4166031 -0.7410139
0.27206188 -0.3903413 0.14089747 -0.40530154 0.51078475 0.049262933 -0.9624692 -0.6022886
0.670451 -0.95505834 -0.66736335 0.7663175 0.8405623 0.89365894 -0.9116385 -0.9683007
0.8036106 0.5231284 -0.42831326 0.6604549 -1.0699285 0.16556628 0.8938119 0.41123745
-0.63642657 0.86313826 0.1315668 0.931346 -0.9016126 0.9612525 -0.8307281 0.41283184
0.16863546 0.4713279 -0.038619682 0.4655507 0.7941668 0.64716846 0.1529886 0.31979516
0.5890957 0.29529735 -0.1556179 0.59306246 0.5540975 0.18395616 0.10558869 0.15357378
-1.0570103 -0.69719696 -0.97593445 0.58057916 0.30362898 0.44915777 -0.6491306 -0.31454343
0.53918815 -0.9551989 -0.41290405 0.08872083 0.18714713 0.8157965 0.110153764 -0.37524334
0.14145993 0.8747622 0.13114603 0.5918029 -0.62713885 -0.20418938 -0.6728643 -0.549722
-0.59959626 -0.7662595 -0.10546243 -0.46671352 -0.42337003 0.8897767 0.9057968 -0.25806105
00000000: 2e02 2bbf 261e 45bf 0950 273f 02f3 09bf
00000010: 5031 acbd 724c 243f 102b 08be 1fc9 e73e
00000020: 5755 55be 903b 5abf 9018 88be c0e7 9d3e
00000030: 8a2e f33e 6aab 25be 199a 123f fec0 9cbe
00000040: ad8f 4a3f 4513 18be 8ad1 d5bd acbb 993e
00000050: ae08 403f 55c8 3b3f d627 5bbf dd88 1fbf
00000060: 87cb c03c 7709 0cbe 1862 59be bd1c 9e3e
00000070: 9ba5 49bf 0797 8f3e aa5b b6be 8365 153e
00000080: d813 bebe 6afb 013d c870 103f 01a4 7c3f
00000090: f432 a4bd 8cd2 24be 4c3b 13bd 9c23 e9be
000000a0: 0a98 193f 970e 343f cdfa c43d ee1d 183f
000000b0: 6608 7fbf 1689 c13e 004d d5be 16b3 3dbf
000000c0: b24b 8b3e d1da c7be 6d47 103e af83 cfbe
000000d0: cac2 023f eec7 493d 6264 76bf 962f 1abf
000000e0: ada2 2b3f b47e 74bf 53d8 2abf 622d 443f
000000f0: 172f 573f d5c6 643f 2461 69bf 8ee2 77bf
00000100: 6db9 4d3f beeb 053f e04b dbbe 9313 293f
00000110: 6bf3 88bf 358a 293e dbd0 643f b78d d23e
00000120: daec 22bf a1f6 5c3f 72b9 063e b16c 6e3f
00000130: 15d0 66bf a514 763f 99aa 54bf b25e d33e
00000140: c6ae 2c3e e451 f13e ac2f 1ebd a95c ee3e
00000150: 844e 4b3f d5ac 253f 0ba9 1c3e 31bc a33e
00000160: face 163f 3731 973e 4c5a 1fbe f1d2 173f
00000170: 55d9 0d3f 015f 3c3e e23e d83d 7242 1d3e
00000180: 1d4c 87bf 807b 32bf d7d6 79bf d6a0 143f
00000190: 4275 9b3e 02f8 e53e 6c2d 26bf d60b a1be
000001a0: 3c08 0a3f ea87 74bf 2968 d3be 44b3 b53d
000001b0: 7fa3 3f3e 0ad8 503f 4c98 e13d e51f c0be
000001c0: dfda 103e 6af0 5f3f 254b 063e 6580 173f
000001d0: 2c8c 20bf 0517 51be d640 2cbf 95ba 0cbf
000001e0: 247f 19bf 9529 44bf b0fc d7bd 13f5 eebe
000001f0: f5c3 d8be 68c8 633f 4de2 673f 9420 84be

nam_layers.4.2.weight f4 [1, 128]
-0.11408174 -0.02632786 0.0046365326 -0.04884827 -0.16661361 -0.031634215 -0.15273389 -0.011324848
-0.18146192 -0.06854972 0.07436194 0.027342824 -0.109406225 0.008554634 -0.13306254 -0.12355847
-0.04453801 -0.23391926 -0.2033647 -0.06655056 -0.064204976 -0.018629048 -0.003981173 -0.14561969
-0.00458203 -0.21614818 -0.04822768 0.06347015 -0.08570026 -0.18049814 -0.15160121 -0.24569836
-0.006136127 -0.24147877 0.019877398 -0.1107984 -0.0014149401 -0.22593978 -0.112726085 -0.038355593
-0.00987456 -0.08563718 -0.13382666 -0.048331883 -0.047330424 0.0052538845 -0.08688913 -0.18219182
-0.21859895 -0.12854703 0.04876558 -0.2154882 -0.06792058 -0.16305575 -0.012079962 0.07301045
-0.05252952 0.052322365 -0.2247084 -0.026008874 0.02184037 -0.09440982 -0.045301035 0.081434734
-0.030658387 -0.1477544 0.02423194 -0.12795603 -0.09643621 -0.12869345 -0.11902048 0.011380261
-0.24688971 -0.17853752 -0.16956969 0.0042644767 -0.13612545 -0.06569628 -0.07218037 -0.17222258
-0.16210787 -0.06261721 -0.0008976188 0.01166369 -0.1036671 -0.0744871 0.043872785 -0.10550722
-0.07391916 -0.012556833 -0.22640899 0.010474575 0.04343449 -0.029728536 -0.00024072734 -0.07150761
-0.07641767 -0.07913237 -0.09079586 0.059113167 -0.048420746 0.0834734 -0.037427686 -0.10143745
0.017478779 0.051864825 -0.1978734 -0.011137914 0.019040592 0.00419217 -0.24283452 -0.1824784
0.06985574 -0.13712744 -0.21379097 -0.0789166 -0.13491997 -0.229732 0.029768474 -0.138924
0.037748046 -0.16726671 -0.035413824 -0.08011466 -0.2226122 -0.013270648 -0.06821598 -0.04638149
00000000: b0a3 e9bd 86ad d7bc 0eee 973b 2015 48bd
00000010: c29c 2abe e192 01bd 4666 1cbe db8b 39bc
00000020: 27d1 39be cc63 8cbd 134b 983d 0ffe df3c
00000030: 5f10 e0bd bc28 0c3c 8c41 08be 390c fdbd
00000040: 7d6d 36bd 8888 6fbe d63e 50be a94b 88bd
00000050: e67d 83bd f29b 98bc 8074 82bb 541d 15be
00000060: da24 96bb f355 5dbe 638a 45bd a3fc 813d
00000070: 9e83 afbd 81d4 38be 593d 1bbe 5a98 7bbe
00000080: 9011 c9bb 3646 77be edd5 a23c 46ea e2bd
00000090: 8375 b9ba c25c 67be efdc e6bd c11a 1dbd
000000a0: e8c8 21bc 8c62 afbd db09 09be a7f7 45bd
000000b0: 8cdd 41bd c728 ac3b eef2 b1bd 7e90 3abe
000000c0: 67d8 5fbe d5a1 03be 6bbe 473d f0a8 5cbe
000000d0: f219 8bbd 16f8 26be 08eb 45bc 8186 953d
000000e0: 3229 57bd fa4f 563d f519 66be 9010 d5bc
000000f0: 93ea b23c f059 c1bd 948d 39bd 41c7 a63d
00000100: 4c27 fbbc ee4c 17be 1082 c63c e806 03be
00000110: 5980 c5bd 37c8 03be 02c1 f3bd 4674 3a3c
00000120: a8d0 7cbe 8ad2 36be ada3 2dbe 06bd 8b3b
00000130: 7864 0bbe c58b 86bd 4dd3 93bd 1e5b 30be
00000140: 9bff 25be 743d 80bd 2e4e 6bba 1019 3f3c
00000150: 6b4f d4bd b18c 98bd f3b3 333d 2b14 d8bd
00000160: ee62 97bd 2dbb 4dbc c2d7 67be 8d9d 2b3c
00000170: 5de8 313d 4289 f3bc c16b 7cb9 9572 92bd
00000180: de80 9cbd 2710 a2bd 2ef3 b9bd a620 723d
00000190: d554 46bd 1af4 aa3d c64d 19bd 70be cfbd
000001a0: a82f 8f3c 3670 543d 539f 4abe cc7b 36bc
000001b0: 04fb 9b3c 795e 893b 9da9 78be 9edb 3abe
000001c0: 8710 8f3d 236b 0cbe 05ec 5abe 079f a1bd
000001d0: 7628 0abe de3e 6bbe 04dd f33c 1842 0ebe
000001e0: b29d 1a3d f747 2bbe 160e 11bd 2813 a4bd
000001f0: 74f4 63be 226d 59bc d2b4 8bbd 84fa 3dbd

output.weight f4 [2, 5]
0.40225378 -1.1959313 0.46077827 1.0980186 -0.17958863 -0.15523499 0.57615006 -0.23266013
-0.42533833 0.26843524
00000000: 35f4 cd3e 4714 99bf 21eb eb3e e08b 8c3f
00000010: 15e6 37be ecf5 1ebe 927e 133f 753e 6ebe
00000020: f2c5 d9be 5870 893e

output.bias f4 [2]
0.2829376 -0.15094647
00000000: 32dd 903e b691 1abe
